…
tensor(0.2542)
Val loss  -inf
False
0 0
tensor(0.0169)
tensor(0.2550)
False
0 0
tensor(0.0169)
tensor(0.2550)
Val loss  -inf
False
0 0
tensor(0.0168)
tensor(0.2547)
False
0 0
tensor(0.0168)
tensor(0.2547)
Val loss  -inf
Iteration 500000: total loss 0.0765, losses: [0.03448135405778885, 9.007210621803097e-08, 0.042040903121232986], learning rate: 0.0009528456, time: 0.0022s
True
0 0
tensor(0.0169)
tensor(0.2548)
True
0 0
tensor(0.0169)
tensor(0.2548)
Val loss  -inf
False
0 0
tensor(0.0168)
tensor(0.2543)
False
0 0
tensor(0.0168)
tensor(0.2543)
FullyConnectedNetworkMod(
  (layers): ModuleList(
    (0): Linear(in_features=1, out_features=16, bias=True)
    (1): SiLU()
    (2): Linear(in_features=16, out_features=16, bias=True)
    (3): SiLU()
    (4): Linear(in_features=16, out_features=2, bias=True)
    (5): Tanh()
  )
)
skipping  Problem_A_results/simulation1
skipping  Problem_A_results/simulation2
cuda:0
Problem_A_results/simulation3
Folder already there
FullyConnectedNetworkMod(
  (layers): ModuleList(
    (0): Linear(in_features=1, out_features=16, bias=True)
    (1): SiLU()
    (2): Linear(in_features=16, out_features=16, bias=True)
    (3): SiLU()
    (4): Linear(in_features=16, out_features=2, bias=True)
    (5): Tanh()
  )
)
torch.Size([100, 2])
torch.Size([100, 1])
tensor([0.0000e+00, 2.4416e-03, 4.8833e-03,  ..., 2.4995e+01, 2.4998e+01,
        2.5000e+01])


 <function FHN_VAL_fromODE.<locals>.<lambda> at 0x7f899d62b5b0>
Iteration 0: total loss 180.1323, losses: [180.1322784423828], learning rate: 0.0010000000, time: 0.0013s
True
0 0
tensor(1.1261)
tensor(1.9973)
…
tensor(0.0111)
Val loss  -inf
False
0 0
tensor(0.0006)
tensor(0.0098)
False
0 0
tensor(0.0006)
tensor(0.0098)
Val loss  -inf
False
0 0
tensor(0.0009)
tensor(0.0242)
False
0 0
tensor(0.0009)
tensor(0.0242)
Val loss  -inf
Iteration 500000: total loss 0.3075, losses: [0.16840322315692902, 1.8644650481292047e-06, 0.13913774490356445], learning rate: 0.0009527503, time: 0.0021s
True
0 0
tensor(0.0007)
tensor(0.0108)
True
0 0
tensor(0.0007)
tensor(0.0108)
Val loss  -inf
False
0 0
tensor(0.0006)
tensor(0.0099)
False
0 0
tensor(0.0006)
tensor(0.0099)
FullyConnectedNetworkMod(
  (layers): ModuleList(
    (0): Linear(in_features=1, out_features=16, bias=True)
    (1): SiLU()
    (2): Linear(in_features=16, out_features=16, bias=True)
    (3): SiLU()
    (4): Linear(in_features=16, out_features=2, bias=True)
    (5): Tanh()
  )
)
skipping  Problem_A_results/simulation5
skipping  Problem_A_results/simulation6
cuda:0
Problem_A_results/simulation7
Folder already there
FullyConnectedNetworkMod(
  (layers): ModuleList(
    (0): Linear(in_features=1, out_features=32, bias=True)
    (1): SiLU()
    (2): Linear(in_features=32, out_features=32, bias=True)
    (3): SiLU()
    (4): Linear(in_features=32, out_features=2, bias=True)
    (5): Tanh()
  )
)
torch.Size([10, 2])
torch.Size([10, 1])
tensor([0.0000e+00, 2.4416e-03, 4.8833e-03,  ..., 2.4995e+01, 2.4998e+01,
        2.5000e+01])


 <function FHN_VAL_fromODE.<locals>.<lambda> at 0x7f899d62b7f0>
Iteration 0: total loss 143.8336, losses: [143.8335723876953], learning rate: 0.0010000000, time: 0.0012s
True
0 0
tensor(0.8041)
tensor(1.5058)
…
tensor(0.8468)
False
0 0
tensor(0.0611)
tensor(0.8468)
Val loss  -inf
False
0 0
tensor(0.0605)
tensor(0.8463)
False
0 0
tensor(0.0605)
tensor(0.8463)
Val loss  -inf
False
0 0
tensor(0.0612)
tensor(0.8474)
False
0 0
tensor(0.0612)
tensor(0.8474)
Val loss  -inf
Iteration 500000: total loss 0.0421, losses: [0.04206930473446846], learning rate: 0.0009526550, time: 0.0006s
True
0 0
tensor(0.0607)
tensor(0.8459)
True
0 0
tensor(0.0607)
tensor(0.8459)
Val loss  -inf
False
0 0
tensor(0.0608)
tensor(0.8456)
False
0 0
tensor(0.0608)
tensor(0.8456)
FullyConnectedNetworkMod(
  (layers): ModuleList(
    (0): Linear(in_features=1, out_features=32, bias=True)
    (1): SiLU()
    (2): Linear(in_features=32, out_features=32, bias=True)
    (3): SiLU()
    (4): Linear(in_features=32, out_features=2, bias=True)
    (5): Tanh()
  )
)
cuda:0
Problem_A_results/simulation8
Folder already there
FullyConnectedNetworkMod(
  (layers): ModuleList(
    (0): Linear(in_features=1, out_features=32, bias=True)
    (1): SiLU()
    (2): Linear(in_features=32, out_features=32, bias=True)
    (3): SiLU()
    (4): Linear(in_features=32, out_features=2, bias=True)
    (5): Tanh()
  )
)
torch.Size([100, 2])
torch.Size([100, 1])
tensor([0.0000e+00, 2.4416e-03, 4.8833e-03,  ..., 2.4995e+01, 2.4998e+01,
        2.5000e+01])


 <function FHN_VAL_fromODE.<locals>.<lambda> at 0x7f899d6c4af0>
Iteration 0: total loss 2038.7639, losses: [1856.0074462890625, 0.7520853877067566, 182.00445556640625], learning rate: 0.0010000000, time: 0.0030s
…
tensor(0.0184)
False
0 0
tensor(0.0009)
tensor(0.0184)
Val loss  -inf
False
0 0
tensor(0.0010)
tensor(0.0289)
False
0 0
tensor(0.0010)
tensor(0.0289)
Val loss  -inf
False
0 0
tensor(0.0007)
tensor(0.0212)
False
0 0
tensor(0.0007)
tensor(0.0212)
Val loss  -inf
Iteration 500000: total loss 0.1134, losses: [0.11337238550186157], learning rate: 0.0009529409, time: 0.0005s
True
0 0
tensor(0.0011)
tensor(0.0310)
True
0 0
tensor(0.0011)
tensor(0.0310)
Val loss  -inf
False
0 0
tensor(0.0010)
tensor(0.0231)
False
0 0
tensor(0.0010)
tensor(0.0231)
FullyConnectedNetworkMod(
  (layers): ModuleList(
    (0): Linear(in_features=1, out_features=32, bias=True)
    (1): SiLU()
    (2): Linear(in_features=32, out_features=32, bias=True)
    (3): SiLU()
    (4): Linear(in_features=32, out_features=2, bias=True)
    (5): Tanh()
  )
)
cuda:0
Problem_A_results/simulation12
Folder already there
FullyConnectedNetworkMod(
  (layers): ModuleList(
    (0): Linear(in_features=1, out_features=16, bias=True)
    (1): Tanh()
    (2): Linear(in_features=16, out_features=16, bias=True)
    (3): Tanh()
    (4): Linear(in_features=16, out_features=2, bias=True)
    (5): Tanh()
  )
)
torch.Size([10, 2])
torch.Size([10, 1])
tensor([0.0000e+00, 2.4416e-03, 4.8833e-03,  ..., 2.4995e+01, 2.4998e+01,
        2.5000e+01])


 <function FHN_VAL_fromODE.<locals>.<lambda> at 0x7f899d62add0>
Iteration 0: total loss 113.4994, losses: [58.26797103881836, 0.5973384380340576, 54.63410568237305], learning rate: 0.0010000000, time: 0.0027s
…
