…
t/conda/conda-bld/pytorch_1729647382455/work/aten/src/ATen/native/TensorShape.cpp:3683.)
  batch_gen=lambda size,de:ensure_at_least_one_column(torch.zeros(size,requires_grad=True).to(de).T)
/home/yan/pinn/Problem_A/Results_plotter.py:55: MatplotlibDeprecationWarning: Passing label as a length 2 sequence when plotting a single dataset is deprecated in Matplotlib 3.9 and will error in 3.11.  To keep the current behavior, cast the sequence to string before passing.
  plt.plot(np.linspace(0,2e6,len(err)),err,label=["Mean Error","Max Error"])
FullyConnectedNetworkMod(
  (layers): ModuleList(
    (0): Linear(in_features=1, out_features=16, bias=True)
    (1): SiLU()
    (2): Linear(in_features=16, out_features=16, bias=True)
    (3): SiLU()
    (4): Linear(in_features=16, out_features=2, bias=True)
    (5): Tanh()
  )
)
cuda:0
Problem_A_results/simulation2
Folder already there
FullyConnectedNetworkMod(
  (layers): ModuleList(
    (0): Linear(in_features=1, out_features=16, bias=True)
    (1): SiLU()
    (2): Linear(in_features=16, out_features=16, bias=True)
    (3): SiLU()
    (4): Linear(in_features=16, out_features=2, bias=True)
    (5): Tanh()
  )
)
torch.Size([100, 2])
torch.Size([100, 1])
tensor([0.0000e+00, 2.4416e-03, 4.8833e-03,  ..., 2.4995e+01, 2.4998e+01,
        2.5000e+01])


 <function FHN_VAL_fromODE.<locals>.<lambda> at 0x7f40a3c1b640>
Iteration 0: total loss 23827.9492, losses: [23566.478515625, 0.18123218417167664, 261.2898864746094], learning rate: 0.0010000000, time: 0.3084s
…
tensor(0.0316)
False
0 0
tensor(0.0012)
tensor(0.0316)
Val loss  -inf
False
0 0
tensor(0.0011)
tensor(0.0173)
False
0 0
tensor(0.0011)
tensor(0.0173)
Val loss  -inf
False
0 0
tensor(0.0014)
tensor(0.0188)
False
0 0
tensor(0.0014)
tensor(0.0188)
Val loss  -inf
Iteration 500000: total loss 0.2720, losses: [0.27203598618507385], learning rate: 0.0009524645, time: 0.0006s
True
0 0
tensor(0.0016)
tensor(0.0250)
True
0 0
tensor(0.0016)
tensor(0.0250)
Val loss  -inf
False
0 0
tensor(0.0011)
tensor(0.0310)
False
0 0
tensor(0.0011)
tensor(0.0310)
FullyConnectedNetworkMod(
  (layers): ModuleList(
    (0): Linear(in_features=1, out_features=16, bias=True)
    (1): SiLU()
    (2): Linear(in_features=16, out_features=16, bias=True)
    (3): SiLU()
    (4): Linear(in_features=16, out_features=2, bias=True)
    (5): Tanh()
  )
)
cuda:0
Problem_A_results/simulation6
Folder already there
FullyConnectedNetworkMod(
  (layers): ModuleList(
    (0): Linear(in_features=1, out_features=32, bias=True)
    (1): SiLU()
    (2): Linear(in_features=32, out_features=32, bias=True)
    (3): SiLU()
    (4): Linear(in_features=32, out_features=2, bias=True)
    (5): Tanh()
  )
)
torch.Size([10, 2])
torch.Size([10, 1])
tensor([0.0000e+00, 2.4416e-03, 4.8833e-03,  ..., 2.4995e+01, 2.4998e+01,
        2.5000e+01])


 <function FHN_VAL_fromODE.<locals>.<lambda> at 0x7f40a3c1bc70>
Iteration 0: total loss 31043.0039, losses: [30883.013671875, 0.1363925039768219, 159.8538360595703], learning rate: 0.0010000000, time: 0.0036s
…
tensor(0.2794)
Val loss  -inf
False
0 0
tensor(0.0192)
tensor(0.2712)
False
0 0
tensor(0.0192)
tensor(0.2712)
Val loss  -inf
False
0 0
tensor(0.0196)
tensor(0.2766)
False
0 0
tensor(0.0196)
tensor(0.2766)
Val loss  -inf
Iteration 500000: total loss 0.0544, losses: [0.02191619575023651, 2.7722128947971214e-07, 0.03251507878303528], learning rate: 0.0009530362, time: 0.0022s
True
0 0
tensor(0.0195)
tensor(0.2718)
True
0 0
tensor(0.0195)
tensor(0.2718)
Val loss  -inf
False
0 0
tensor(0.0196)
tensor(0.2689)
False
0 0
tensor(0.0196)
tensor(0.2689)
FullyConnectedNetworkMod(
  (layers): ModuleList(
    (0): Linear(in_features=1, out_features=32, bias=True)
    (1): SiLU()
    (2): Linear(in_features=32, out_features=32, bias=True)
    (3): SiLU()
    (4): Linear(in_features=32, out_features=2, bias=True)
    (5): Tanh()
  )
)
skipping  Problem_A_results/simulation7
skipping  Problem_A_results/simulation8
cuda:0
Problem_A_results/simulation9
Folder already there
FullyConnectedNetworkMod(
  (layers): ModuleList(
    (0): Linear(in_features=1, out_features=32, bias=True)
    (1): SiLU()
    (2): Linear(in_features=32, out_features=32, bias=True)
    (3): SiLU()
    (4): Linear(in_features=32, out_features=2, bias=True)
    (5): Tanh()
  )
)
torch.Size([100, 2])
torch.Size([100, 1])
tensor([0.0000e+00, 2.4416e-03, 4.8833e-03,  ..., 2.4995e+01, 2.4998e+01,
        2.5000e+01])


 <function FHN_VAL_fromODE.<locals>.<lambda> at 0x7f40a3cac940>
Iteration 0: total loss 143.2256, losses: [143.2256317138672], learning rate: 0.0010000000, time: 0.0012s
True
0 0
tensor(0.7485)
tensor(1.5635)
…
tensor(0.0154)
Val loss  -inf
False
0 0
tensor(0.0021)
tensor(0.0304)
False
0 0
tensor(0.0021)
tensor(0.0304)
Val loss  -inf
False
0 0
tensor(0.0013)
tensor(0.0184)
False
0 0
tensor(0.0013)
tensor(0.0184)
Val loss  -inf
Iteration 500000: total loss 0.2317, losses: [0.06428362429141998, 1.2569455520861084e-06, 0.16737477481365204], learning rate: 0.0009526550, time: 0.0024s
True
0 0
tensor(0.0015)
tensor(0.0345)
True
0 0
tensor(0.0015)
tensor(0.0345)
Val loss  -inf
False
0 0
tensor(0.0008)
tensor(0.0158)
False
0 0
tensor(0.0008)
tensor(0.0158)
FullyConnectedNetworkMod(
  (layers): ModuleList(
    (0): Linear(in_features=1, out_features=32, bias=True)
    (1): SiLU()
    (2): Linear(in_features=32, out_features=32, bias=True)
    (3): SiLU()
    (4): Linear(in_features=32, out_features=2, bias=True)
    (5): Tanh()
  )
)
skipping  Problem_A_results/simulation11
skipping  Problem_A_results/simulation12
cuda:0
Problem_A_results/simulation13
Folder already there
FullyConnectedNetworkMod(
  (layers): ModuleList(
    (0): Linear(in_features=1, out_features=16, bias=True)
    (1): Tanh()
    (2): Linear(in_features=16, out_features=16, bias=True)
    (3): Tanh()
    (4): Linear(in_features=16, out_features=2, bias=True)
    (5): Tanh()
  )
)
torch.Size([10, 2])
torch.Size([10, 1])
tensor([0.0000e+00, 2.4416e-03, 4.8833e-03,  ..., 2.4995e+01, 2.4998e+01,
        2.5000e+01])


 /home/yan/pinn/Problem_A/Results_plotter.py:55: MatplotlibDeprecationWarning: Passing label as a length 2 sequence when plotting a single dataset is deprecated in Matplotlib 3.9 and will error in 3.11.  To keep the current behavior, cast the sequence to string before passing.
…
