…
False
0 0
tensor(0.0089)
tensor(0.9499)
Val loss  -inf
Iteration 490000: total loss 0.0786, losses: [0.07862481474876404], learning rate: 0.0009558041, time: 0.0010s
False
0 0
tensor(0.0080)
tensor(0.9569)
False
0 0
tensor(0.0080)
tensor(0.9569)
Val loss  -inf
Iteration 500000: total loss 0.1478, losses: [0.14775200188159943], learning rate: 0.0009548488, time: 0.0009s
True
0 0
tensor(0.0086)
tensor(0.9733)
True
0 0
tensor(0.0086)
tensor(0.9733)
Val loss  -inf
False
0 0
tensor(0.0090)
tensor(0.9423)
False
0 0
tensor(0.0090)
tensor(0.9423)
FullyConnectedNetworkMod(
  (layers): ModuleList(
    (0): Linear(in_features=4, out_features=32, bias=True)
    (1): Sigmoid()
    (2): Linear(in_features=32, out_features=64, bias=True)
    (3): Tanh()
    (4): Linear(in_features=64, out_features=64, bias=True)
    (5): ReLU()
    (6): Linear(in_features=64, out_features=2, bias=True)
  )
)
0 bbbbb
1 bbbbb
2 bbbbb
3 bbbbb
aaa Problem_C_Results/simulation19
cpu
Folder already there
FullyConnectedNetworkMod(
  (layers): ModuleList(
    (0): Linear(in_features=4, out_features=32, bias=True)
    (1): ELU(alpha=1.0)
    (2): Linear(in_features=32, out_features=32, bias=True)
    (3): Tanh()
    (4): Linear(in_features=32, out_features=64, bias=True)
    (5): ReLU()
    (6): Linear(in_features=64, out_features=2, bias=True)
  )
)
tensor([[0.0000e+00, 5.1198e-01, 6.7255e-03, 6.9964e-02],
        [1.0000e-01, 5.1198e-01, 6.7255e-03, 6.9964e-02],
        [2.0000e-01, 5.1198e-01, 6.7255e-03, 6.9964e-02],
        ...,
        [1.9800e+01, 7.2475e-01, 5.6975e-02, 8.7034e-01],
        [1.9900e+01, 7.2475e-01, 5.6975e-02, 8.7034e-01],
        [2.0000e+01, 7.2475e-01, 5.6975e-02, 8.7034e-01]])
…
False
0 0
tensor(0.0080)
tensor(0.9159)
Val loss  -inf
Iteration 490000: total loss 0.0783, losses: [0.07834366708993912], learning rate: 0.0009574305, time: 0.0007s
False
0 0
tensor(0.0078)
tensor(0.9375)
False
0 0
tensor(0.0078)
tensor(0.9375)
Val loss  -inf
Iteration 500000: total loss 0.1130, losses: [0.11296198517084122], learning rate: 0.0009564735, time: 0.0010s
True
0 0
tensor(0.0082)
tensor(0.9252)
True
0 0
tensor(0.0082)
tensor(0.9252)
Val loss  -inf
False
0 0
tensor(0.0079)
tensor(0.9224)
False
0 0
tensor(0.0079)
tensor(0.9224)
FullyConnectedNetworkMod(
  (layers): ModuleList(
    (0): Linear(in_features=4, out_features=16, bias=True)
    (1): Sigmoid()
    (2): Linear(in_features=16, out_features=32, bias=True)
    (3): SiLU()
    (4): Linear(in_features=32, out_features=64, bias=True)
    (5): Tanh()
    (6): Linear(in_features=64, out_features=2, bias=True)
  )
)
2 bbbbb
3 bbbbb
0 bbbbb
1 bbbbb
aaa Problem_C_Results/simulation17
cpu
Folder already there
FullyConnectedNetworkMod(
  (layers): ModuleList(
    (0): Linear(in_features=4, out_features=64, bias=True)
    (1): LeakyReLU(negative_slope=0.01)
    (2): Linear(in_features=64, out_features=64, bias=True)
    (3): ReLU()
    (4): Linear(in_features=64, out_features=128, bias=True)
    (5): SiLU()
    (6): Linear(in_features=128, out_features=2, bias=True)
  )
)
tensor([[0.0000e+00, 5.1198e-01, 6.7255e-03, 6.9964e-02],
        [1.0000e-01, 5.1198e-01, 6.7255e-03, 6.9964e-02],
        [2.0000e-01, 5.1198e-01, 6.7255e-03, 6.9964e-02],
        ...,
        [1.9800e+01, 7.2475e-01, 5.6975e-02, 8.7034e-01],
        [1.9900e+01, 7.2475e-01, 5.6975e-02, 8.7034e-01],
        [2.0000e+01, 7.2475e-01, 5.6975e-02, 8.7034e-01]])
…
False
0 0
tensor(0.0075)
tensor(0.9927)
Val loss  -inf
Iteration 490000: total loss 0.0402, losses: [0.04022801294922829], learning rate: 0.0009559953, time: 0.0012s
False
0 0
tensor(0.0040)
tensor(0.9607)
False
0 0
tensor(0.0040)
tensor(0.9607)
Val loss  -inf
Iteration 500000: total loss 0.0628, losses: [0.06276345252990723], learning rate: 0.0009550398, time: 0.0012s
True
0 0
tensor(0.0044)
tensor(0.8975)
True
0 0
tensor(0.0044)
tensor(0.8975)
Val loss  -inf
False
0 0
tensor(0.0036)
tensor(0.7471)
False
0 0
tensor(0.0036)
tensor(0.7471)
FullyConnectedNetworkMod(
  (layers): ModuleList(
    (0): Linear(in_features=4, out_features=64, bias=True)
    (1): ReLU()
    (2): Linear(in_features=64, out_features=64, bias=True)
    (3): Tanh()
    (4): Linear(in_features=64, out_features=128, bias=True)
    (5): Tanh()
    (6): Linear(in_features=128, out_features=2, bias=True)
  )
)
3 bbbbb
0 bbbbb
1 bbbbb
2 bbbbb
aaa Problem_C_Results/simulation18
3 bbbbb
0 bbbbb
1 bbbbb
2 bbbbb
aaa Problem_C_Results/simulation22
cpu
Folder already there
FullyConnectedNetworkMod(
  (layers): ModuleList(
    (0): Linear(in_features=4, out_features=16, bias=True)
    (1): SiLU()
    (2): Linear(in_features=16, out_features=32, bias=True)
    (3): LeakyReLU(negative_slope=0.01)
    (4): Linear(in_features=32, out_features=128, bias=True)
    (5): SiLU()
    (6): Linear(in_features=128, out_features=2, bias=True)
  )
)
tensor([[0.0000e+00, 5.1198e-01, 6.7255e-03, 6.9964e-02],
        [1.0000e-01, 5.1198e-01, 6.7255e-03, 6.9964e-02],
        [2.0000e-01, 5.1198e-01, 6.7255e-03, 6.9964e-02],
        ...,
        [1.9800e+01, 7.2475e-01, 5.6975e-02, 8.7034e-01],
        [1.9900e+01, 7.2475e-01, 5.6975e-02, 8.7034e-01],
        [2.0000e+01, 7.2475e-01, 5.6975e-02, 8.7034e-01]])
…
Val loss  -inf
Iteration 130000: total loss 0.1298, losses: [0.1298292577266693], learning rate: 0.0009903464, time: 0.0015s
False
0 0
tensor(0.0129)
tensor(0.9487)
False
0 0
tensor(0.0129)
tensor(0.9487)
Val loss  -inf
tensor(0.0055)
tensor(0.8269)
Val loss  -inf
Iteration 500000: total loss 0.0849, losses: [0.08490409702062607], learning rate: 0.0009535128, time: 0.0009s
True
0 0
tensor(0.0050)
tensor(0.8275)
True
0 0
tensor(0.0050)
tensor(0.8275)
Val loss  -inf
False
0 0
tensor(0.0054)
tensor(0.7990)
False
0 0
tensor(0.0054)
tensor(0.7990)
FullyConnectedNetworkMod(
  (layers): ModuleList(
    (0): Linear(in_features=4, out_features=32, bias=True)
    (1): ELU(alpha=1.0)
    (2): Linear(in_features=32, out_features=32, bias=True)
    (3): LeakyReLU(negative_slope=0.01)
    (4): Linear(in_features=32, out_features=128, bias=True)
    (5): LeakyReLU(negative_slope=0.01)
    (6): Linear(in_features=128, out_features=2, bias=True)
  )
)
1 bbbbb
2 bbbbb
3 bbbbb
0 bbbbb
aaa Problem_C_Results/simulation16
cpu
Folder already there
FullyConnectedNetworkMod(
  (layers): ModuleList(
    (0): Linear(in_features=4, out_features=32, bias=True)
    (1): Sigmoid()
    (2): Linear(in_features=32, out_features=64, bias=True)
    (3): Sigmoid()
    (4): Linear(in_features=64, out_features=64, bias=True)
    (5): Tanh()
    (6): Linear(in_features=64, out_features=2, bias=True)
  )
)
tensor([[0.0000e+00, 5.1198e-01, 6.7255e-03, 6.9964e-02],
        [1.0000e-01, 5.1198e-01, 6.7255e-03, 6.9964e-02],
        [2.0000e-01, 5.1198e-01, 6.7255e-03, 6.9964e-02],
        ...,
        [1.9800e+01, 7.2475e-01, 5.6975e-02, 8.7034e-01],
        [1.9900e+01, 7.2475e-01, 5.6975e-02, 8.7034e-01],
        [2.0000e+01, 7.2475e-01, 5.6975e-02, 8.7034e-01]])
…
False
0 0
tensor(0.0059)
tensor(0.9281)
Val loss  -inf
Iteration 490000: total loss 0.0722, losses: [0.07220751792192459], learning rate: 0.0009575262, time: 0.0010s
False
0 0
tensor(0.0053)
tensor(0.9254)
False
0 0
tensor(0.0053)
tensor(0.9254)
Val loss  -inf
Iteration 500000: total loss 0.0734, losses: [0.07342351973056793], learning rate: 0.0009565691, time: 0.0011s
True
0 0
tensor(0.0053)
tensor(0.9097)
True
0 0
tensor(0.0053)
tensor(0.9097)
Val loss  -inf
False
0 0
tensor(0.0048)
tensor(0.9231)
False
0 0
tensor(0.0048)
tensor(0.9231)
FullyConnectedNetworkMod(
  (layers): ModuleList(
    (0): Linear(in_features=4, out_features=32, bias=True)
    (1): Sigmoid()
    (2): Linear(in_features=32, out_features=64, bias=True)
    (3): Sigmoid()
    (4): Linear(in_features=64, out_features=64, bias=True)
    (5): Tanh()
    (6): Linear(in_features=64, out_features=2, bias=True)
  )
)
1 bbbbb
2 bbbbb
3 bbbbb
0 bbbbb
aaa Problem_C_Results/simulation20
1 bbbbb
2 bbbbb
3 bbbbb
0 bbbbb
aaa Problem_C_Results/simulation24
1 bbbbb
2 bbbbb
3 bbbbb
0 bbbbb
aaa Problem_C_Results/simulation28
1 bbbbb
2 bbbbb
3 bbbbb
0 bbbbb
aaa Problem_C_Results/simulation32
cpu
Folder already there
FullyConnectedNetworkMod(
  (layers): ModuleList(
    (0): Linear(in_features=4, out_features=16, bias=True)
    (1): Sigmoid()
    (2): Linear(in_features=16, out_features=32, bias=True)
    (3): LeakyReLU(negative_slope=0.01)
    (4): Linear(in_features=32, out_features=32, bias=True)
    (5): Sigmoid()
    (6): Linear(in_features=32, out_features=2, bias=True)
  )
)
tensor([[0.0000e+00, 5.1198e-01, 6.7255e-03, 6.9964e-02],
        [1.0000e-01, 5.1198e-01, 6.7255e-03, 6.9964e-02],
        [2.0000e-01, 5.1198e-01, 6.7255e-03, 6.9964e-02],
        ...,
        [1.9800e+01, 7.2475e-01, 5.6975e-02, 8.7034e-01],
        [1.9900e+01, 7.2475e-01, 5.6975e-02, 8.7034e-01],
        [2.0000e+01, 7.2475e-01, 5.6975e-02, 8.7034e-01]])
…
False
0 0
tensor(0.0048)
tensor(0.9253)
Val loss  -inf
Iteration 490000: total loss 0.0462, losses: [0.046240031719207764], learning rate: 0.0009553263, time: 0.0022s
False
0 0
tensor(0.0046)
tensor(0.9711)
False
0 0
tensor(0.0046)
tensor(0.9711)
Val loss  -inf
Iteration 500000: total loss 0.0726, losses: [0.0725836232304573], learning rate: 0.0009543714, time: 0.0016s
True
0 0
tensor(0.0050)
tensor(0.9999)
True
0 0
tensor(0.0050)
tensor(0.9999)
Val loss  -inf
False
0 0
tensor(0.0053)
tensor(0.9538)
False
0 0
tensor(0.0053)
tensor(0.9538)
FullyConnectedNetworkMod(
  (layers): ModuleList(
    (0): Linear(in_features=4, out_features=64, bias=True)
    (1): LeakyReLU(negative_slope=0.01)
    (2): Linear(in_features=64, out_features=64, bias=True)
    (3): ReLU()
    (4): Linear(in_features=64, out_features=128, bias=True)
    (5): SiLU()
    (6): Linear(in_features=128, out_features=2, bias=True)
  )
)
2 bbbbb
3 bbbbb
0 bbbbb
1 bbbbb
aaa Problem_C_Results/simulation21
2 bbbbb
3 bbbbb
0 bbbbb
1 bbbbb
aaa Problem_C_Results/simulation25
2 bbbbb
3 bbbbb
0 bbbbb
1 bbbbb
aaa Problem_C_Results/simulation29
2 bbbbb
3 bbbbb
0 bbbbb
1 bbbbb
aaa Problem_C_Results/simulation33
2 bbbbb
3 bbbbb
0 bbbbb
1 bbbbb
aaa Problem_C_Results/simulation37
cpu
FullyConnectedNetworkMod(
  (layers): ModuleList(
    (0): Linear(in_features=4, out_features=16, bias=True)
    (1): Sigmoid()
    (2): Linear(in_features=16, out_features=32, bias=True)
    (3): Tanh()
    (4): Linear(in_features=32, out_features=32, bias=True)
    (5): ELU(alpha=1.0)
    (6): Linear(in_features=32, out_features=2, bias=True)
  )
)
tensor([[0.0000e+00, 5.1198e-01, 6.7255e-03, 6.9964e-02],
        [1.0000e-01, 5.1198e-01, 6.7255e-03, 6.9964e-02],
        [2.0000e-01, 5.1198e-01, 6.7255e-03, 6.9964e-02],
        ...,
        [1.9800e+01, 7.2475e-01, 5.6975e-02, 8.7034e-01],
        [1.9900e+01, 7.2475e-01, 5.6975e-02, 8.7034e-01],
        [2.0000e+01, 7.2475e-01, 5.6975e-02, 8.7034e-01]])
…
