…
False
0 0
tensor(0.0057)
tensor(0.8612)
Val loss  -inf
Iteration 490000: total loss 0.0789, losses: [0.07892636954784393], learning rate: 0.0009555174, time: 0.0008s
False
0 0
tensor(0.0058)
tensor(0.8814)
False
0 0
tensor(0.0058)
tensor(0.8814)
Val loss  -inf
Iteration 500000: total loss 0.0879, losses: [0.08788904547691345], learning rate: 0.0009545623, time: 0.0013s
True
0 0
tensor(0.0072)
tensor(0.8372)
True
0 0
tensor(0.0072)
tensor(0.8372)
Val loss  -inf
False
0 0
tensor(0.0048)
tensor(0.8352)
False
0 0
tensor(0.0048)
tensor(0.8352)
FullyConnectedNetworkMod(
  (layers): ModuleList(
    (0): Linear(in_features=4, out_features=32, bias=True)
    (1): ELU(alpha=1.0)
    (2): Linear(in_features=32, out_features=32, bias=True)
    (3): ELU(alpha=1.0)
    (4): Linear(in_features=32, out_features=64, bias=True)
    (5): Tanh()
    (6): Linear(in_features=64, out_features=2, bias=True)
  )
)
3 bbbbb
0 bbbbb
1 bbbbb
2 bbbbb
aaa Problem_C_Results/simulation14
3 bbbbb
0 bbbbb
1 bbbbb
2 bbbbb
aaa Problem_C_Results/simulation18
3 bbbbb
0 bbbbb
1 bbbbb
2 bbbbb
aaa Problem_C_Results/simulation22
3 bbbbb
0 bbbbb
1 bbbbb
2 bbbbb
aaa Problem_C_Results/simulation26
cpu
Folder already there
FullyConnectedNetworkMod(
  (layers): ModuleList(
    (0): Linear(in_features=4, out_features=16, bias=True)
    (1): Tanh()
    (2): Linear(in_features=16, out_features=32, bias=True)
    (3): Sigmoid()
    (4): Linear(in_features=32, out_features=64, bias=True)
    (5): SiLU()
    (6): Linear(in_features=64, out_features=2, bias=True)
  )
)
tensor([[0.0000e+00, 5.1198e-01, 6.7255e-03, 6.9964e-02],
        [1.0000e-01, 5.1198e-01, 6.7255e-03, 6.9964e-02],
        [2.0000e-01, 5.1198e-01, 6.7255e-03, 6.9964e-02],
        ...,
        [1.9800e+01, 7.2475e-01, 5.6975e-02, 8.7034e-01],
        [1.9900e+01, 7.2475e-01, 5.6975e-02, 8.7034e-01],
        [2.0000e+01, 7.2475e-01, 5.6975e-02, 8.7034e-01]])
…
False
0 0
tensor(0.0054)
tensor(0.9814)
Val loss  -inf
Iteration 490000: total loss 0.0357, losses: [0.03565281257033348], learning rate: 0.0009549443, time: 0.0017s
False
0 0
tensor(0.0046)
tensor(0.8598)
False
0 0
tensor(0.0046)
tensor(0.8598)
Val loss  -inf
Iteration 500000: total loss 0.0599, losses: [0.0598585270345211], learning rate: 0.0009539897, time: 0.0016s
True
0 0
tensor(0.0040)
tensor(0.8552)
True
0 0
tensor(0.0040)
tensor(0.8552)
Val loss  -inf
False
0 0
tensor(0.0045)
tensor(0.8231)
False
0 0
tensor(0.0045)
tensor(0.8231)
FullyConnectedNetworkMod(
  (layers): ModuleList(
    (0): Linear(in_features=4, out_features=64, bias=True)
    (1): SiLU()
    (2): Linear(in_features=64, out_features=64, bias=True)
    (3): Tanh()
    (4): Linear(in_features=64, out_features=128, bias=True)
    (5): Tanh()
    (6): Linear(in_features=128, out_features=2, bias=True)
  )
)
2 bbbbb
3 bbbbb
0 bbbbb
1 bbbbb
aaa Problem_C_Results/simulation13
2 bbbbb
3 bbbbb
0 bbbbb
1 bbbbb
aaa Problem_C_Results/simulation17
2 bbbbb
3 bbbbb
0 bbbbb
1 bbbbb
aaa Problem_C_Results/simulation21
2 bbbbb
3 bbbbb
0 bbbbb
1 bbbbb
aaa Problem_C_Results/simulation25
2 bbbbb
3 bbbbb
0 bbbbb
1 bbbbb
aaa Problem_C_Results/simulation29
cpu
Folder already there
FullyConnectedNetworkMod(
  (layers): ModuleList(
    (0): Linear(in_features=4, out_features=32, bias=True)
    (1): ReLU()
    (2): Linear(in_features=32, out_features=32, bias=True)
    (3): Sigmoid()
    (4): Linear(in_features=32, out_features=64, bias=True)
    (5): Tanh()
    (6): Linear(in_features=64, out_features=2, bias=True)
  )
)
tensor([[0.0000e+00, 5.1198e-01, 6.7255e-03, 6.9964e-02],
        [1.0000e-01, 5.1198e-01, 6.7255e-03, 6.9964e-02],
        [2.0000e-01, 5.1198e-01, 6.7255e-03, 6.9964e-02],
        ...,
        [1.9800e+01, 7.2475e-01, 5.6975e-02, 8.7034e-01],
        [1.9900e+01, 7.2475e-01, 5.6975e-02, 8.7034e-01],
        [2.0000e+01, 7.2475e-01, 5.6975e-02, 8.7034e-01]])
…
tensor(0.8061)
Val loss  -inf
Iteration 130000: total loss 0.3829, losses: [0.3828977942466736], learning rate: 0.0009895544, time: 0.0013s
False
0 0
tensor(0.0222)
tensor(0.8290)
False
0 0
tensor(0.0222)
tensor(0.8290)
Val loss  -inf
tensor(0.9526)
Val loss  -inf
Iteration 500000: total loss 0.1199, losses: [0.11994685232639313], learning rate: 0.0009536082, time: 0.0014s
True
0 0
tensor(0.0066)
tensor(0.9018)
True
0 0
tensor(0.0066)
tensor(0.9018)
Val loss  -inf
False
0 0
tensor(0.0068)
tensor(0.9164)
False
0 0
tensor(0.0068)
tensor(0.9164)
FullyConnectedNetworkMod(
  (layers): ModuleList(
    (0): Linear(in_features=4, out_features=16, bias=True)
    (1): LeakyReLU(negative_slope=0.01)
    (2): Linear(in_features=16, out_features=32, bias=True)
    (3): Tanh()
    (4): Linear(in_features=32, out_features=64, bias=True)
    (5): ReLU()
    (6): Linear(in_features=64, out_features=2, bias=True)
  )
)
1 bbbbb
2 bbbbb
3 bbbbb
0 bbbbb
aaa Problem_C_Results/simulation12
1 bbbbb
2 bbbbb
3 bbbbb
0 bbbbb
aaa Problem_C_Results/simulation16
1 bbbbb
2 bbbbb
3 bbbbb
0 bbbbb
aaa Problem_C_Results/simulation20
1 bbbbb
2 bbbbb
3 bbbbb
0 bbbbb
aaa Problem_C_Results/simulation24
1 bbbbb
2 bbbbb
3 bbbbb
0 bbbbb
aaa Problem_C_Results/simulation28
cpu
Folder already there
FullyConnectedNetworkMod(
  (layers): ModuleList(
    (0): Linear(in_features=4, out_features=16, bias=True)
    (1): Tanh()
    (2): Linear(in_features=16, out_features=32, bias=True)
    (3): SiLU()
    (4): Linear(in_features=32, out_features=64, bias=True)
    (5): ReLU()
    (6): Linear(in_features=64, out_features=2, bias=True)
  )
)
tensor([[0.0000e+00, 5.1198e-01, 6.7255e-03, 6.9964e-02],
        [1.0000e-01, 5.1198e-01, 6.7255e-03, 6.9964e-02],
        [2.0000e-01, 5.1198e-01, 6.7255e-03, 6.9964e-02],
        ...,
        [1.9800e+01, 7.2475e-01, 5.6975e-02, 8.7034e-01],
        [1.9900e+01, 7.2475e-01, 5.6975e-02, 8.7034e-01],
        [2.0000e+01, 7.2475e-01, 5.6975e-02, 8.7034e-01]])
…
False
0 0
tensor(0.0047)
tensor(0.8430)
Val loss  -inf
Iteration 490000: total loss 0.0961, losses: [0.09611111134290695], learning rate: 0.0009557086, time: 0.0043s
False
0 0
tensor(0.0047)
tensor(0.8670)
False
0 0
tensor(0.0047)
tensor(0.8670)
Val loss  -inf
Iteration 500000: total loss 0.1210, losses: [0.12096509337425232], learning rate: 0.0009547533, time: 0.0030s
True
0 0
tensor(0.0059)
tensor(0.9650)
True
0 0
tensor(0.0059)
tensor(0.9650)
Val loss  -inf
False
0 0
tensor(0.0049)
tensor(0.8182)
False
0 0
tensor(0.0049)
tensor(0.8182)
FullyConnectedNetworkMod(
  (layers): ModuleList(
    (0): Linear(in_features=4, out_features=32, bias=True)
    (1): LeakyReLU(negative_slope=0.01)
    (2): Linear(in_features=32, out_features=64, bias=True)
    (3): Sigmoid()
    (4): Linear(in_features=64, out_features=128, bias=True)
    (5): ReLU()
    (6): Linear(in_features=128, out_features=2, bias=True)
  )
)
0 bbbbb
1 bbbbb
2 bbbbb
3 bbbbb
aaa Problem_C_Results/simulation15
0 bbbbb
1 bbbbb
2 bbbbb
3 bbbbb
aaa Problem_C_Results/simulation19
0 bbbbb
1 bbbbb
2 bbbbb
3 bbbbb
aaa Problem_C_Results/simulation23
0 bbbbb
1 bbbbb
2 bbbbb
3 bbbbb
aaa Problem_C_Results/simulation27
0 bbbbb
1 bbbbb
2 bbbbb
3 bbbbb
aaa Problem_C_Results/simulation31
0 bbbbb
1 bbbbb
2 bbbbb
3 bbbbb
aaa Problem_C_Results/simulation35
cpu
Folder already there
FullyConnectedNetworkMod(
  (layers): ModuleList(
    (0): Linear(in_features=4, out_features=32, bias=True)
    (1): SiLU()
    (2): Linear(in_features=32, out_features=32, bias=True)
    (3): Sigmoid()
    (4): Linear(in_features=32, out_features=128, bias=True)
    (5): ELU(alpha=1.0)
    (6): Linear(in_features=128, out_features=2, bias=True)
  )
)
tensor([[0.0000e+00, 5.1198e-01, 6.7255e-03, 6.9964e-02],
        [1.0000e-01, 5.1198e-01, 6.7255e-03, 6.9964e-02],
        [2.0000e-01, 5.1198e-01, 6.7255e-03, 6.9964e-02],
        ...,
        [1.9800e+01, 7.2475e-01, 5.6975e-02, 8.7034e-01],
        [1.9900e+01, 7.2475e-01, 5.6975e-02, 8.7034e-01],
        [2.0000e+01, 7.2475e-01, 5.6975e-02, 8.7034e-01]])
…
False
0 0
tensor(0.0069)
tensor(0.9264)
Val loss  -inf
Iteration 490000: total loss 0.1100, losses: [0.11004049330949783], learning rate: 0.0009557086, time: 0.0020s
False
0 0
tensor(0.0082)
tensor(0.9184)
False
0 0
tensor(0.0082)
tensor(0.9184)
Val loss  -inf
Iteration 500000: total loss 0.1061, losses: [0.10608279705047607], learning rate: 0.0009547533, time: 0.0017s
True
0 0
tensor(0.0068)
tensor(0.9132)
True
0 0
tensor(0.0068)
tensor(0.9132)
Val loss  -inf
False
0 0
tensor(0.0068)
tensor(0.9109)
False
0 0
tensor(0.0068)
tensor(0.9109)
FullyConnectedNetworkMod(
  (layers): ModuleList(
    (0): Linear(in_features=4, out_features=16, bias=True)
    (1): Tanh()
    (2): Linear(in_features=16, out_features=32, bias=True)
    (3): SiLU()
    (4): Linear(in_features=32, out_features=64, bias=True)
    (5): ReLU()
    (6): Linear(in_features=64, out_features=2, bias=True)
  )
)
1 bbbbb
2 bbbbb
3 bbbbb
0 bbbbb
aaa Problem_C_Results/simulation32
1 bbbbb
2 bbbbb
3 bbbbb
0 bbbbb
aaa Problem_C_Results/simulation36
1 bbbbb
2 bbbbb
3 bbbbb
0 bbbbb
aaa Problem_C_Results/simulation40
1 bbbbb
2 bbbbb
3 bbbbb
0 bbbbb
aaa Problem_C_Results/simulation44
1 bbbbb
2 bbbbb
3 bbbbb
0 bbbbb
aaa Problem_C_Results/simulation48
cpu
Folder already there
FullyConnectedNetworkMod(
  (layers): ModuleList(
    (0): Linear(in_features=4, out_features=64, bias=True)
    (1): ReLU()
    (2): Linear(in_features=64, out_features=64, bias=True)
    (3): SiLU()
    (4): Linear(in_features=64, out_features=128, bias=True)
    (5): ReLU()
    (6): Linear(in_features=128, out_features=2, bias=True)
  )
)
tensor([[0.0000e+00, 5.1198e-01, 6.7255e-03, 6.9964e-02],
        [1.0000e-01, 5.1198e-01, 6.7255e-03, 6.9964e-02],
        [2.0000e-01, 5.1198e-01, 6.7255e-03, 6.9964e-02],
        ...,
        [1.9800e+01, 7.2475e-01, 5.6975e-02, 8.7034e-01],
        [1.9900e+01, 7.2475e-01, 5.6975e-02, 8.7034e-01],
        [2.0000e+01, 7.2475e-01, 5.6975e-02, 8.7034e-01]])
…
False
0 0
tensor(0.0069)
tensor(0.9055)
Val loss  -inf
Iteration 490000: total loss 0.0812, losses: [0.08124670386314392], learning rate: 0.0009570476, time: 0.0015s
False
0 0
tensor(0.0066)
tensor(0.8869)
False
0 0
tensor(0.0066)
tensor(0.8869)
Val loss  -inf
Iteration 500000: total loss 0.1146, losses: [0.11461698263883591], learning rate: 0.0009560909, time: 0.0017s
True
0 0
tensor(0.0074)
tensor(0.9360)
True
0 0
tensor(0.0074)
tensor(0.9360)
Val loss  -inf
False
0 0
tensor(0.0069)
tensor(0.8817)
False
0 0
tensor(0.0069)
tensor(0.8817)
FullyConnectedNetworkMod(
  (layers): ModuleList(
    (0): Linear(in_features=4, out_features=32, bias=True)
    (1): SiLU()
    (2): Linear(in_features=32, out_features=32, bias=True)
    (3): Sigmoid()
    (4): Linear(in_features=32, out_features=128, bias=True)
    (5): ELU(alpha=1.0)
    (6): Linear(in_features=128, out_features=2, bias=True)
  )
)
0 bbbbb
1 bbbbb
2 bbbbb
3 bbbbb
aaa Problem_C_Results/simulation39
0 Problem_C_Results/simulation38
3 bbbbb
0 bbbbb
1 bbbbb
2 bbbbb
aaa Problem_C_Results/simulation42
cpu
Folder already there
FullyConnectedNetworkMod(
  (layers): ModuleList(
    (0): Linear(in_features=4, out_features=16, bias=True)
    (1): ELU(alpha=1.0)
    (2): Linear(in_features=16, out_features=64, bias=True)
    (3): SiLU()
    (4): Linear(in_features=64, out_features=128, bias=True)
    (5): Sigmoid()
    (6): Linear(in_features=128, out_features=2, bias=True)
  )
)
tensor([[0.0000e+00, 5.1198e-01, 6.7255e-03, 6.9964e-02],
        [1.0000e-01, 5.1198e-01, 6.7255e-03, 6.9964e-02],
        [2.0000e-01, 5.1198e-01, 6.7255e-03, 6.9964e-02],
        ...,
        [1.9800e+01, 7.2475e-01, 5.6975e-02, 8.7034e-01],
        [1.9900e+01, 7.2475e-01, 5.6975e-02, 8.7034e-01],
        [2.0000e+01, 7.2475e-01, 5.6975e-02, 8.7034e-01]])
…
